SDL/ckpt/baseline_simple_best.pt (torch, 180226 bytes, 9 tensors)

net.0.weight f4 [256, 1]
0.6707166 0.7820878 -0.13827612 0.76411974 -0.13957904 0.19606024 -0.38355166 0.5635414
0.75457245 -0.5970383 0.82583153 0.15873978 0.70099974 0.13158077 0.45110565 -0.1371796
0.7056721 0.1776103 -0.37818003 0.2429636 -0.4725346 -0.027167395 -0.2850737 0.644533
-0.7529969 -0.41871527 -0.2938042 -0.6391759 0.091700606 -0.9302538 0.8541292 -0.7100413
0.7375551 0.16104913 -0.33942205 0.5881688 0.15142226 0.7911106 0.1104161 -0.33191603
0.2610482 -0.27625385 0.3947512 0.86218065 0.51723003 -0.4341445 0.53798467 0.17384069
0.49340466 -0.4948556 -0.929361 -0.2514471 -0.7103117 0.76561594 0.29710013 0.40058845
0.30727425 0.004007769 0.7857507 -0.64989555 0.10417131 -0.5620624 0.28397605 -0.21926227
0.29769918 -0.27111912 0.7752089 -0.4471665 -0.5761759 -0.5521926 0.8521209 0.32377812
0.8955352 -0.7554801 -0.82382333 -0.7489361 -0.64134234 0.3935216 0.29854473 0.7707609
-0.49114373 -0.56448776 0.5104677 -0.38764623 0.5799255 -0.19837537 0.53444135 -0.678388
-0.4959429 0.2962135 0.24089947 -0.2822405 0.5654818 0.59659827 -0.66049397 -0.3978053
0.8292558 -0.24071416 -0.4112655 -0.9172051 -0.41674715 0.22476734 -0.1282376 -0.57165307
0.022789627 -0.703066 -0.7778138 -0.5227723 -0.77243614 -0.57093656 0.86921173 0.18350758
0.2994077 -0.8942377 -0.5155285 -0.22897394 0.15192863 -0.82636386 -0.4210165 -0.6420446
0.031557225 -0.24568786 -0.021478398 -0.6206392 -0.534124 -0.5193435 -0.2079948 -0.62856656
0.79158324 -0.11913259 0.80306304 0.31135112 -0.73708665 0.645388 -0.32449475 -0.32523674
-0.7259368 -0.8857615 0.2730056 -0.250356 0.3782564 -0.758925 0.63598096 -0.73029447
-0.18409178 0.20534055 0.4567313 0.73666793 0.8704992 -0.70179486 0.24451499 -0.36642975
-0.10646964 -0.6150036 0.87016255 -0.7083918 0.45604527 0.32068697 0.25394312 -0.61365426
0.82514083 0.12858862 0.12498394 -0.90812564 0.39139712 -0.1278119 -0.4045254 0.7772294
0.23869747 -0.5171209 -0.45395324 -0.04639945 0.49838844 -0.13454196 -0.4362331 -0.34867123
-0.71645725 0.2827941 0.7358853 -0.8253843 0.22564913 0.44694453 0.15895562 -0.27551848
0.4925397 0.47728112 0.3364468 -0.11215582 -0.19445734 0.10394059 -0.17163253 -0.20290859
0.62713194 0.82350695 -0.15215038 -0.21753062 0.014177383 0.005027123 0.25574398 0.24473156
-0.8484874 -0.26757842 0.7579735 0.37847582 -0.1343426 -0.51757294 -0.4554935 -0.9239243
-0.21504378 0.32810536 0.66358626 0.4444192 -0.7472859 -0.48551783 -0.105502754 0.8696744
0.16378255 -0.28269178 0.4032216 -0.26322657 -0.69416577 0.68125576 -0.47929308 -0.08925236
-0.91283715 0.6367641 0.7158801 0.27590385 -0.7591765 -0.9717479 -0.6973938 0.70882
0.37596625 0.80519295 0.44679078 0.1977838 0.026841458 -0.7224373 -0.8091555 -0.89960057
0.35564 -0.39317015 -0.19271602 -0.60346115 -0.17723984 -0.7293937 -0.601991 0.25827622
-0.21602103 0.5070548 -0.33912578 -0.7446848 -0.16512245 -0.46016 -0.23400865 -0.9032207
00000000: 15b4 2b3f e836 483f 4198 0dbe 5a9d 433f
00000010: cfed 0ebe 04c4 483e e260 c4be 4044 103f
00000020: a92b 413f 81d7 18bf b269 533f ae8c 223e
00000030: b874 333f 1cbd 063e 52f7 e63e cf78 0cbe
00000040: eda6 343f 79df 353e d0a0 c1be 73cb 783e
00000050: 0ef0 f1be 288e debc 2ef5 91be 1d00 253f
00000060: 68c4 40bf d961 d6be 816d 96be 08a1 23bf
00000070: 87cd bb3d 1d25 6ebf 36a8 5a3f 44c5 35bf
00000080: 69d0 3c3f 10ea 243e bac8 adbe 3b92 163f
00000090: 700e 1b3e 3986 4a3f d621 e23d e6f0 a9be
000000a0: 1ca8 853e 2571 8dbe d41c ca3e dfb7 5c3f
000000b0: 3069 043f 3048 debe 5db9 093f 4b03 323e
000000c0: 899f fc3e b75d fdbe 9aea 6dbf adbd 80be
000000d0: fdd6 35bf 68ff 433f 821d 983e ee19 cd3e
000000e0: 0d53 9d3e 9a53 833b f526 493f 8e5f 26bf
000000f0: c557 d53d 52e3 0fbf 4f65 913e 4a86 60be
00000100: 076c 983e 20d0 8abe 1774 463f 02f3 e4be
00000110: 4480 13bf 7f5c 0dbf 9824 5a3f 3fc6 a53e
00000120: cb41 653f 2567 41bf 16e6 52bf 47ba 3fbf
00000130: 032f 24bf aa7b c93e dbda 983e 9650 453f
00000140: 3177 fbbe 4582 10bf 03ae 023f 9179 c6be
00000150: ff75 143f ea22 4bbe 26d1 083f d6aa 2dbf
00000160: 3aec fdbe 4ca9 973e 5aae 763e d481 90be
00000170: 6ac3 103f aaba 183f 2216 29bf 23ad cbbe
00000180: 1c4a 543f c67d 76be 6491 d2be f4cd 6abf
00000190: e25f d5be 6929 663e b850 03be db57 12bf
000001a0: 50b1 ba3c 22fc 33bf ce1e 47bf 68d4 05bf
000001b0: 60be 45bf e628 12bf a984 5e3f 69e9 3b3e
000001c0: f74b 993e c3ec 64bf adf9 03bf 2578 6abe
000001d0: 2e93 1b3e 958c 53bf 7a8f d7be 095d 24bf
000001e0: 2642 013d 9995 7bbe 77f3 afbc 36e2 1ebf
000001f0: 5abc 08bf b2f3 04bf 97fc 54be bde9 20bf
00000200: 33a5 4a3f cafb f3bd 8a95 4d3f 6a69 9f3e
00000210: b6b1 3cbf 2638 253f 2d24 a6be 6e85 a6be
00000220: fed6 39bf 44c1 62bf 64c7 8b3e a92e 80be
00000230: d3aa c13e e948 42bf a6cf 223f 94f4 3abf
00000240: 8e82 3cbe cb44 523e afd8 e93e 4596 3c3f
00000250: 09d9 5e3f d4a8 33bf 2362 7a3e ae9c bbbe
00000260: c10c dabd e070 1dbf f9c2 5e3f 2a59 35bf
00000270: c47e e93e 1531 a43e d504 823e 7218 1dbf
00000280: 6e3c 533f bcac 033e 94f7 ff3d ec7a 68bf
00000290: 3465 c83e 1fe1 02be f41d cfbe 82f8 463f
000002a0: 1c6d 743e 0962 04bf 8f6c e8be 5a0d 3ebd
000002b0: c52c ff3e 5ec5 09be f259 dfbe 0985 b2be
000002c0: be69 37bf 63ca 903e fb62 3c3f 634c 53bf
000002d0: 9110 673e ead5 e43e 43c5 223e c210 8dbe
000002e0: 2a2e fc3e 315e f43e c142 ac3e f3b1 e5bd
000002f0: d31f 47be cede d43d 70c0 2fbe 45c7 4fbe
00000300: b88b 203f 5ad1 523f 4fcd 1bbe 59c0 5ebe
00000310: 4148 683c 90ba a43b e0f0 823e e99a 7a3e
00000320: 7836 59bf 0a00 89be 8d0a 423f 95c7 c13e
00000330: 1b91 09be a97f 04bf 7236 e9be 4e86 6cbf
00000340: 7034 5cbe 6dfd a73e cae0 293f ea8a e33e
00000350: 214e 3fbf cb95 f8be d411 d8bd fba2 5e3f
00000360: 9db6 273e fabc 90be 1073 ce3e a2c5 86be
00000370: d9b4 31bf c766 2e3f e765 f5be f1c9 b6bd
00000380: b2af 69bf f902 233f eb43 373f 4543 8d3e
00000390: 6459 42bf 78c4 78bf 6688 32bf 3a75 353f
000003a0: a67e c03e 2021 4e3f c3c1 e43e d687 4a3e
000003b0: 9ee2 db3c a7f1 38bf d124 4fbf 394c 66bf
000003c0: 7216 b63e 994d c9be 5957 45be 6e7c 1abf
000003d0: 5c7e 35be 8cb9 3abf 151c 1abf c83c 843e
000003e0: 9e34 5dbe 58ce 013f e5a1 adbe aaa3 3ebf
000003f0: dc15 29be 179a ebbe f79f 6fbe 7939 67bf

net.0.bias f4 [256]
0.58756953 -0.69551694 0.5185343 0.5630674 0.7006156 -0.74522793 0.73227096 -0.4638501
0.44785613 0.96380985 -0.040394675 0.12108629 -0.19188423 -0.8112516 0.4967068 -0.9645015
0.66661733 0.75104225 0.9430482 -0.23208508 -0.7747468 0.2770949 0.5809674 -0.9670338
-0.32045004 -0.6278506 -0.18089591 -0.43779978 -0.3971494 -0.45505205 -0.9490177 0.87158006
0.830087 -0.15105978 -0.22368452 -0.4016418 -0.87739056 -0.9408714 0.39130333 -0.5078694
-0.6246051 -0.18814819 -0.33491418 -0.30282676 0.14200261 -0.28755265 -0.3467001 -0.46520394
-0.7907089 0.86364096 -0.5322421 0.37426254 -0.4710514 0.19348095 0.9165633 0.45617798
-0.84197026 0.40058908 0.92691886 0.30893815 0.6684674 0.9889359 -0.15898736 0.32637104
-0.6752689 -0.1838891 0.74761784 0.5997188 -0.60702807 -0.824885 -0.68542176 -0.95884305
-0.7861671 -0.3925277 0.76810354 0.15271369 -0.7420809 -0.77943724 0.510668 -0.7604556
-0.20002812 0.57277566 -0.4523206 -0.1656424 0.038182743 -0.28995106 -0.5148392 -0.9734879
-0.78907466 -0.5202358 0.95225435 -0.45893338 -0.6688304 0.32696044 0.31176314 0.61582804
0.78667337 0.5821303 -0.93663365 0.015402541 0.66490614 -0.067691125 -0.57253855 0.96164185
-0.36340892 -0.47614276 -0.92680067 0.045209445 0.53623706 0.25648665 0.2493473 -0.736846
-0.90733397 -0.015642006 0.93591183 0.6001251 -0.565685 -0.21166845 -0.7285456 -0.44434717
0.22477607 0.5610972 0.8066916 -0.9495824 0.73744696 -0.7610396 0.44626406 0.8933112
0.12571344 0.9004708 -0.86285955 -0.3683124 0.66943103 -0.20476156 -0.22006956 -0.47855914
0.7587816 0.54033583 0.3208382 -0.54174834 -0.788682 0.033119243 0.3986623 -0.4993349
-0.2760368 0.67610914 0.17910337 0.14494258 -0.21854867 -0.9804113 -0.91352355 -0.5318779
-0.49387065 0.39923266 -0.25423437 -0.4871802 0.9662289 0.3652358 0.73661613 -0.41000104
-0.45103204 0.4084083 -0.64733607 -0.61294055 0.09832385 -0.37319204 -0.7871514 0.61447626
0.80239815 0.1937275 -0.30652732 -0.8999644 -0.39320174 0.34185022 0.5532647 -0.23638411
-0.48452893 0.57739043 -0.7919072 0.7124552 -0.37693033 0.13936967 -0.212885 0.24620551
-0.30332735 0.73109007 0.09493316 0.77403975 0.9484783 -0.4733437 -0.7087754 0.80281645
0.76893353 -0.7485478 -0.10211608 -0.9581084 -0.7953442 0.24721016 0.28961903 0.26012188
-0.41223723 0.90892154 0.22115989 -0.57332414 -0.088920146 0.36393622 0.46009535 -0.6286509
0.43115255 -0.4963479 -0.7657355 -0.53857154 0.99955404 0.8769352 0.87156874 0.64871305
0.75371015 -0.19155656 -0.5336434 0.5415256 -0.47344902 -0.68569046 -0.32616645 0.30122828
0.58876735 -0.38777986 -0.59140664 0.2662913 -0.5190196 -0.6675997 0.61964357 -0.093868084
0.9133081 0.94774246 0.37836853 0.38315925 0.270768 -0.052289415 -0.1285361 -0.016109379
0.4002712 0.9289263 -0.28192008 -0.41736102 -0.24838993 -0.48094413 0.16651556 0.76083803
0.7810114 0.50040823 -0.70045567 -0.5125652 -0.23856208 -0.28668332 0.20250925 -0.87353694
00000000: f56a 163f 660d 32bf aabe 043f 2f25 103f
00000010: 8b5b 333f 42c7 3ebf 1c76 3b3f c37d edbe
00000020: 664d e53e 3ebc 763f e374 25bd 17fc f73d
00000030: 4d7d 44be 2fae 4fbf 5b50 fe3e 92e9 76bf
00000040: 6fa7 2a3f 4e44 403f 9b6b 713f b6a7 6dbe
00000050: ce55 46bf 62df 8d3e 48ba 143f 878f 77bf
00000060: 0712 a4be d1ba 20bf c73c 39be 4b27 e0be
00000070: 2b57 cbbe 95fc e8be d3f2 72bf df1f 5f3f
00000080: 9580 543f 6aaf 1abe 8e0d 65be fea3 cdbe
00000090: ab9c 60bf f3dc 70bf e958 c83e bb03 02bf
000000a0: 1fe6 1fbf eba9 40be df79 abbe 1c0c 9bbe
000000b0: 2269 113e 1a3a 93be ad82 b1be 362f eebe
000000c0: e66b 4abf 9317 5d3f 0541 08bf 579f bf3e
000000d0: a62d f1be df1f 463e e4a3 6a3f 2990 e93e
000000e0: 5d8b 57bf 031a cd3e 8e4a 6d3f 242d 9e3e
000000f0: ae20 2b3f e72a 7d3f 95cd 22be 1b1a a73e
00000100: 6cde 2cbf 6d4d 3cbe e263 3f3f 2c87 193f
00000110: 3166 1bbf aa2b 53bf cd77 2fbf bd76 75bf
00000120: 3f42 49bf 64f9 c8be 6fa2 443f fa60 1c3e
00000130: 04f9 3dbf 3389 47bf 23bb 023f 38ad 42bf
00000140: 2cd4 4cbe 6da1 123f 9196 e7be 299e 29be
00000150: 8265 1c3d 7774 94be 80cc 03bf 8136 79bf
00000160: cc00 4abf 2c2e 05bf f1c6 733f 51f9 eabe
00000170: 7838 2bbf 5c67 a73e 6b9f 9f3e e8a6 1d3f
00000180: 6d63 493f 7e06 153f 39c7 6fbf f05a 7c3c
00000190: 4a37 2a3f a5a1 8abd e391 12bf 292e 763f
000001a0: bc10 babe fcc8 f3be cf42 6dbf 8a2d 393d
000001b0: d546 093f 3852 833e e654 7f3e f1a1 3cbf
000001c0: 0a47 68bf aa23 80bc eb97 6f3f cca1 193f
000001d0: bbd0 10bf 9dbf 58be f781 3abf 7981 e3be
000001e0: b32b 663e 11a4 0f3f 5783 4e3f d517 73bf
000001f0: 53c9 3c3f 7ed3 42bf b97c e43e 0bb0 643f
00000200: 06bb 003e 4185 663f 5de4 5cbf 7193 bcbe
00000210: d55f 2b3f 04ad 51be ea59 61be b405 f5be
00000220: 833f 423f 7353 0a3f e844 a43e 05b0 0abf
00000230: 10e7 49bf 0ba8 073d 771d cc3e d3a8 ffbe
00000240: b254 8dbe 7d15 2d3f e066 373e d46b 143e
00000250: 39cb 5fbe 3cfc 7abf aedc 69bf 2629 08bf
00000260: 9ddc fcbe 3968 cc3e 022b 82be af6f f9be
00000270: c75a 773f 3000 bb3e e092 3c3f a8eb d1be
00000280: aced e6be e51a d13e d1b7 25bf ace9 1cbf
00000290: 045e c93d 0713 bfbe c182 49bf 514e 1d3f
000002a0: f769 4d3f 8060 463e 26f1 9cbe 1164 66bf
000002b0: bd51 c9be fe06 af3e c1a2 0d3f ad0e 72be
000002c0: 2d14 f8be dccf 133f 6eba 4abf 7763 363f
000002d0: 03fd c0be ecb6 0e3e 87fe 59be 4c1d 7c3e
000002e0: b94d 9bbe b828 3b3f 516c c23d 7827 463f
000002f0: 79cf 723f 1b5a f2be 4e72 35bf 6185 4d3f
00000300: d4d8 443f d4a0 3fbf 3c22 d1bd 9846 75bf
00000310: ad9b 4bbf a924 7d3e f248 943e b22e 853e
00000320: c210 d3be 15af 683f bd77 623e 5fc5 12bf
00000330: c41b b6bd d955 ba3e 9e91 eb3e 44ef 20bf
00000340: 07c0 dc3e 5021 febe 3e07 44bf d3df 09bf
00000350: c6e2 7f3f d37e 603f 211f 5f3f 0f12 263f
00000360: 26f3 403f 6727 44be db9c 08bf 6ca1 0a3f
00000370: e967 f2be 6989 2fbf 4aff a6be 983a 9a3e
00000380: 75b9 163f 158b c6be 6d66 17bf 5557 883e
00000390: 78de 04bf d0e7 2abf f6a0 1e3f e93d c0bd
000003a0: 8fce 693f 409f 723f 85b9 c13e 732d c43e
000003b0: 1aa2 8a3e 6d2d 56bd f89e 03be d1f7 83bc
000003c0: 59f0 cc3e 1dce 6d3f d457 90be 58b0 d5be
000003d0: ee59 7ebe 4f3e f6be 0e83 2a3e 48c6 423f
000003e0: 5df0 473f c11a 003f 1051 33bf 7937 03bf
000003f0: 9e49 74be 28c8 92be 965e 4f3e 1ea0 5fbf

net.3.weight f4 [128, 256]
0.009503143 -0.055971213 -0.04755394 -0.059818912 0.043684572 -0.057501137 0.036790125 -0.011433712
-0.016428182 0.029029937 -0.0152731575 0.028538605 0.03429815 -0.052721974 0.0139465295 0.011463352
0.0036517626 -0.00057117105 0.007207423 -0.03898658 -0.007768962 0.04836711 0.03181779 -0.0022812793
-0.057111394 0.0026612806 -0.04135169 0.049380757 -0.0368645 -0.004384391 -0.022661615 0.0025230418
0.047712773 -0.0038059675 0.035168294 0.037555568 0.04902409 -0.029908435 -0.022978403 0.02926552
-0.016569315 0.028434979 -0.023029678 -0.050546285 0.0151453605 0.009309763 0.017659629 0.0603283
0.041457802 0.04849471 0.0032501314 -0.060689855 -0.04259774 -0.047178324 -0.06270962 -0.0398695
-0.05590026 -0.0653851 -0.045437027 -0.067286834 -0.046701472 0.013996767 0.041095212 -0.025600173
-0.017663138 0.032423925 -0.039233595 -0.03735836 0.03741466 -0.05290779 -0.0021836914 0.05364123
0.0007811677 0.016513927 -0.043621287 -0.006670968 0.0033388885 0.014903788 0.014096531 0.043231897
-0.046350975 -0.0065269917 -0.03984478 -0.048036076 -0.014224744 -0.05345197 0.03292572 0.007032789
-0.032727923 0.03173196 -0.06647074 -0.023487488 -0.020869218 -0.06095893 -0.046115562 -0.018598422
0.036660496 0.049472727 0.03863619 -0.042091407 -0.04803737 0.043452397 0.021478418 -0.0073341285
0.008217765 -0.048802145 -0.02027473 0.053151164 -0.022882575 -0.010823525 -0.059804097 -0.033968773
-0.0012399324 -0.043549955 -0.016534382 0.015596939 -0.059398983 0.012250846 -0.040151197 -0.029635683
0.013853961 0.039105102 -0.025995228 -0.024931015 -0.06359252 -0.031312995 -0.06196879 -0.022690626
0.002934767 -0.066255 0.043605685 0.02912056 -0.06794791 -0.038578995 0.01980533 -0.012476143
-0.015286079 -0.035834298 0.039328348 -0.033944387 0.05035676 -0.0019141615 0.002701923 0.047371976
-0.01000491 -0.044020135 -0.019157423 0.039832532 -0.0546218 0.01378291 -0.059677184 0.031838257
0.0224357 -0.00442024 0.016371945 6.829907e-05 0.024140896 -0.05734039 -0.018313086 0.026938304
0.050949227 0.021590067 -0.044157434 0.046702396 -0.02316387 -0.012965492 -0.055191517 -0.019040631
0.03352869 0.0019598394 -0.035368983 0.018691989 -0.029082246 0.046857342 -0.06121884 -0.019181512
-0.05863417 -0.033282902 0.009783925 0.05029719 0.01019842 0.05011211 0.0027400013 0.028727954
0.039161634 0.041327316 -0.04335161 0.046544142 0.027490824 -0.028392803 -0.028977094 -0.060346726
0.0059162783 -0.058622573 0.0256512 0.019176694 -0.052757762 0.007064514 -0.014236424 0.018269192
0.03484261 -0.06982041 0.0461444 0.05092638 0.024161555 -0.063238 -0.030075107 -0.017598031
-0.0243816 0.03424404 0.013714437 0.039139863 -0.0314268 0.011435991 0.012252718 -0.059695505
-0.06794421 -0.031508956 0.032904014 -0.06619084 -0.0528555 0.024363765 0.032762483 0.04151002
-0.054059975 -0.05412089 0.021752862 0.04333264 0.036333494 0.009512457 0.011958067 0.048154578
-0.048577525 -0.036968585 0.033043556 -0.05065552 -0.04295056 0.03849848 0.01333732 0.013787792
-0.035264876 -0.010067574 0.05557529 -0.036447402 0.00047742552 0.0288806 -0.047968242 0.049538475
-0.039489478 -0.024144905 -0.016429791 -0.03957158 -0.059587233 0.034239728 0.009897139 -0.05687444
00000000: 12b3 1b3c 1242 65bd ecc7 42bd ad04 75bd
00000010: 98ee 323d 5086 6bbd 3eb1 163d 7754 3bbc
00000020: 6594 86bc 31d0 ed3c 443c 7abc cbc9 e93c
00000030: 387c 0c3d fff2 57bd fc7f 643c c8d0 3b3c
00000040: 6952 6f3b a4ba 15ba 3f2c ec3b 64b0 1fbd
00000050: c792 febb 971c 463d 5f53 023d 8481 15bb
00000060: a3ed 69bd e168 2e3b 6460 29bd 7a43 4a3d
00000070: 3bff 16bd f0aa 8fbb daa4 b9bc 9e59 253b
00000080: 786e 433d 8a6d 79bb a10c 103d ded3 193d
00000090: 7ccd 483d 8902 f5bc 343d bcbc 3ebe ef3c
000000a0: 5fbc 87bc 79f0 e83c bca8 bcbc 9f09 4fbd
000000b0: 3f24 783c fa87 183c edaa 903c cf1a 773d
000000c0: a8cf 293d 64a2 463d 2800 553b ed95 78bd
000000d0: f87a 2ebd 0f3e 41bd e76d 80bd 334e 23bd
000000e0: acf7 64bd a0e8 85bd 2d1c 3abd aecd 89bd
000000f0: 0b4a 3fbd b252 653c 7453 283d 74b7 d1bc
00000100: 49b2 90bc f3ce 043d 68b3 20bd 1405 19bd
00000110: 1d40 193d d7b5 58bd 431c 0fbb e8b6 5b3d
00000120: 47c7 4c3a 3748 873c 3cac 32bd 2398 dabb
00000130: 41d1 5a3b 052f 743c 23f5 663c ee13 313d
00000140: 85da 3dbd 60e0 d5bb 4834 23bd 7ac1 44bd
00000150: e70e 69bc 74f0 5abd 1fdd 063d 4f73 e63b
00000160: b70d 06bd 5ff9 013d d021 88bd d568 c0bc
00000170: ecf5 aabc 12b0 79bd ace3 3cbd b85b 98bc
00000180: 5129 163d eaa3 4a3d fb40 1e3d 0a68 2cbd
00000190: d5c2 44bd 24fb 313d 82f3 af3c 2153 f0bb
000001a0: cea3 063c c2e4 47bd 3117 a6bc 09b5 593d
000001b0: 3d74 bbbc 2755 31bc 24f5 74bd d722 0bbd
000001c0: 3a85 a2ba 7061 32bd 1d73 87bc 4e8a 7f3c
000001d0: 594c 73bd c6b7 483c 9575 24bd 88c6 f2bc
000001e0: b9fb 623c ac2c 203d f2f3 d4bc 213c ccbc
000001f0: cc3c 82bd 0e42 00bd fcd2 7dbd b1e1 b9bc
00000200: 3855 403b b4b0 87bd e09b 323d 3e8e ee3c
00000210: 4628 8bbd 0205 1ebd ca3e a23c bd68 4cbc
00000220: 7672 7abc fcc6 12bd c316 213d 4509 0bbd
00000230: e442 4e3d 9ae4 faba bf12 313b 1e09 423d
00000240: a2eb 23bc 754e 34bd 07f0 9cbc 7027 233d
00000250: 1cbb 5fbd b7d1 613c 1070 74bd d568 023d
00000260: 13cb b73c a9d7 90bb 751e 863c c93b 8f38
00000270: 21c3 c53c c2dd 6abd 5305 96bc b8ad dc3c
00000280: 23b0 503d a7dd b03c 6dde 34bd 034b 3f3d
00000290: 28c2 bdbc 376d 54bc 8010 62bd 19fb 9bbc
000002a0: 6155 093d a670 003b 11df 10bd f11f 993c
000002b0: e43d eebc 7ced 3f3d 9bc0 7abd 8c22 9dbc
000002c0: 622a 70bd a753 08bd c14c 203c 6d04 4e3d
000002d0: 4617 273c 5b42 4d3d 9891 333b e356 eb3c
000002e0: f367 203d d546 293d 7591 31bd 12a5 3e3d
000002f0: 7034 e13c 0698 e8bc 5f61 edbc 212e 77bd
00000300: 57dd c13b 391e 70bd 7722 d23c 7118 9d3c
00000310: 8618 58bd 707d e73b e43f 69bc 46a9 953c
00000320: 20b7 0e3d 01fe 8ebd e901 3d3d 2e98 503d
00000330: 74ee c53c ed82 81bd 1260 f6bc bf29 90bc
00000340: ecbb c7bc 7a43 0c3d 85b2 603c 1f51 203d
00000350: 63b9 00bd 065e 3b3c a0bf 483c 4683 74bd
00000360: 5526 8bbd 890f 01bd 5cc6 063d 108f 87bd
00000370: 027f 58bd 8596 c73c f431 063d 6906 2a3d
00000380: fe6d 5dbd dead 5dbd 0f33 b23c 917d 313d
00000390: 6ed2 143d 23da 1b3c c5eb 433c bc3d 453d
000003a0: 3af9 46bd 5f6c 17bd ae58 073d 2a7c 4fbd
000003b0: edec 2fbd 95b0 1d3d c684 5a3c 31e6 613c
000003c0: e771 10bd 77f2 24bc eaa2 633d df49 15bd
000003d0: f84e fa39 0297 ec3c 597a 44bd dbe8 4a3d
000003e0: b8bf 21bd 89cb c5bc c597 86bc cf15 22bd
000003f0: be11 74bd f53e 0c3d 9c27 223c 2cf5 68bd

net.3.bias f4 [128]
0.05094496 0.09186743 -0.04568871 0.27197707 -0.023042724 0.22376132 0.12054205 0.14056475
0.14779805 0.00560285 -0.06545702 0.15056564 0.06510675 0.16864942 0.17276603 0.33388245
0.2243346 0.19708838 0.09913259 0.110415585 0.024892544 0.20194803 -0.028110394 0.16188113
0.09644488 0.14811707 0.041916437 0.24696726 0.12531729 0.16737589 0.04308212 0.12671857
0.15304641 0.2713553 -0.0054634837 0.16314104 -0.04901721 0.12411702 -0.024810608 0.22925581
0.16527532 0.1811817 0.12244082 0.1766598 0.12394814 0.0017586589 0.17590763 0.17360719
0.24169262 0.030733606 0.15388693 -0.034177326 0.14580387 0.088478506 0.17359099 0.3009734
0.03870199 0.24669692 0.09012153 -0.05250767 0.10137404 -0.057656057 -0.0019118397 0.21724154
0.17240795 -0.06614057 0.014433081 0.07506555 0.11104845 -0.056662384 0.13383266 0.17874388
0.110385545 0.20262413 0.12789884 0.1466528 -0.11856966 0.17732139 -0.052702963 -0.024900839
0.23555134 0.09775494 0.2087176 0.07201629 -0.015056961 0.10691536 0.00053896074 0.24288212
-0.08251226 -0.053212035 0.11438837 -0.017973045 0.08796814 0.13246311 0.14458945 0.010552066
-0.01798099 0.16164126 0.030402156 -0.039209656 0.009350823 0.15570486 0.106105424 0.14446291
0.14196081 -0.05324291 0.18188512 0.13855276 0.14382935 0.07273271 0.16593972 -0.014908272
0.2991387 0.20161477 0.07590604 0.1416005 0.023264052 0.21578497 0.26713642 0.106744826
0.19333448 0.17452966 -0.04747374 0.011695656 0.090302944 0.2125187 0.008990551 0.17219262
00000000: aaab 503d fe24 bc3d 1624 3bbd 9440 8b3e
00000010: 18c4 bcbc b021 653e c0de f63d 35f0 0f3e
00000020: 5f58 173e 1d98 b73b 550e 86bd e12d 1a3e
00000030: b056 853d 6fb2 2c3e 94e9 303e a4f2 aa3e
00000040: f8b7 653e 89d1 493e 0706 cb3d 9121 e23d
00000050: 73eb cb3c 77cb 4e3e c547 e6bc 2bc4 253e
00000060: e584 c53d 00ac 173e 92b0 2b3d fce4 7c3e
00000070: 2d53 003e 9664 2b3e e176 303d 83c2 013e
00000080: 33b8 1c3e 15ef 8a3e 0607 b3bb 720e 273e
00000090: 45c6 48bd 1031 fe3d 9e3f cbbc 09c2 6a3e
000000a0: ef3d 293e b287 393e 41c2 fa3d 4ee6 343e
000000b0: 86d8 fd3d cd82 e63a 2121 343e 15c6 313e
000000c0: 457e 773e 0bc5 fb3c 8994 1d3e 86fd 0bbd
000000d0: 9c4d 153e 3834 b53d d6c1 313e 2f19 9a3e
000000e0: fa85 1e3d 1e9e 7c3e a391 b83d 4812 57bd
000000f0: 319d cf3d c228 6cbd b296 faba 9174 5e3e
00000100: b68b 303e b574 87bd bb78 6c3c f8bb 993d
00000110: 5f6d e33d d116 68bd 6e0b 093e a308 373e
00000120: d111 e23d b37c 4f3e eaf7 023e 272c 163e
00000130: a6d4 f2bd bd93 353e 10df 57bd d8fc cbbc
00000140: 5f34 713e be33 c83d 11ba 553e 477d 933d
00000150: 79b1 76bc 71f6 da3d 0b49 0d3a 17b6 783e
00000160: 30fc a8bd ddf4 59bd 7344 ea3d 353c 93bc
00000170: a428 b43d 69a4 073e 420f 143e 93e2 2c3c
00000180: de4c 93bc 4985 253e f10d f93c 4e9a 20bd
00000190: 3234 193c 1871 1f3e cd4d d93d 16ee 133e
000001a0: 2d5e 113e 3d15 5abd 1840 3a3e c6e0 0d3e
000001b0: 0048 133e e3f4 943d 1aec 293e d341 74bc
000001c0: b528 993e 1a74 4e3e a074 9b3d b9ff 103e
000001d0: 4194 be3c bcf6 5c3e 1bc6 883e 089d da3d
000001e0: 79f9 453e e7b7 323e d373 42bd 239f 3f3c
000001f0: c0f0 b83d 819e 593e 1b4d 133c 4353 303e

net.6.weight f4 [64, 128]
-0.030357827 0.037693445 -0.007716922 -0.08336488 0.046159998 0.022443276 -0.056711003 0.05173769
-0.05858967 0.0065816245 -0.059224546 -0.064250186 0.039596356 0.05993142 -0.08579324 -0.056338247
-0.05092887 -0.08293958 -0.00035658557 0.05942024 0.025382983 -0.029122422 -0.02925088 0.009579039
-0.0591047 -0.083771355 -0.0063255345 0.0027689761 -0.06308561 -0.04465298 0.07284105 0.0039610574
-0.022734875 -0.036730003 0.047585268 0.0030265632 0.05520634 -0.032685254 -0.050397184 0.04402378
-0.024086589 0.059979405 -0.0128806885 0.0029733356 -0.057279263 -0.083302155 -0.06078753 0.041268367
-0.07995538 -0.0073798373 -0.017925128 0.0061904355 -0.09782086 -0.03342761 -0.018829698 0.004668499
-0.03183306 0.07071157 -0.026840918 0.07254776 0.064674646 0.045824844 0.051060952 0.06666453
-0.08018285 -0.0672056 0.014041091 -0.032195885 -0.04574241 -0.06284927 0.032507326 0.0651909
-0.044651244 0.029731844 0.021843644 -0.009320459 -0.05416752 0.039052486 0.04871989 -0.042648263
0.054613378 0.050328765 -0.045254216 -0.082889125 0.017625792 0.039971292 -0.015180496 0.08523051
-0.008997693 -0.007228517 0.06130456 -0.017358353 0.052615035 -0.00073646655 0.01679803 -0.005047936
-0.011254549 0.021827232 -0.061868187 -0.05037844 0.00032520207 -0.033145927 -0.04821597 -0.06546184
-0.03393497 0.08294225 -0.057639685 0.026862146 0.07410099 0.057110768 0.012880243 -0.01604676
0.062423855 0.01127603 -0.08779985 -0.056370467 -0.02716445 -0.0023493993 -0.034503397 0.007906086
0.023890054 -0.06940936 -0.051376194 0.041834157 -0.08457729 0.038975816 0.00923104 -0.08885687
-0.009118041 0.0713542 -0.0037302296 0.039608173 -0.06768106 0.014061708 -0.07626912 0.06779519
-0.06710562 -0.02417339 0.041402023 0.015218298 0.018877156 0.035457626 -0.006454334 0.038218565
0.084933475 0.024238585 0.008283186 0.027388118 0.023422185 0.04320183 -0.0076728063 0.0071503804
-0.0069111288 -0.05861001 0.0001883325 -0.05931008 0.07349604 0.04861778 0.026079005 -0.07245349
0.0108421445 0.08013498 0.020950053 0.09665333 0.07781467 0.03532822 0.07958878 -0.0009042336
0.11899915 0.02150622 0.024293326 0.030572534 0.0022724937 0.08771584 0.08329385 -0.016764635
-0.026398655 0.07091916 0.049365815 -0.029307896 -0.07770499 -0.0028173777 0.041794796 0.16072074
0.031576473 0.03226107 0.08316057 0.02783629 0.033438396 -0.0077787433 0.07184763 0.05760424
-0.010522066 0.037091643 -0.044827208 -0.072321884 0.08410775 0.042314015 0.049674574 0.050739963
0.08653641 0.022682823 0.03836361 -0.042139824 -0.10219929 0.031337965 -0.03250351 0.006746093
-0.006064551 -0.038522214 -0.021183247 0.09609905 0.008681943 0.034312032 0.059843466 0.12725836
0.041851133 0.045788944 -0.011888594 0.02732349 0.043410696 0.06112675 -0.058748547 -0.0699179
-0.07767387 0.06483977 0.081090055 0.06687323 0.023471313 0.010688137 -0.030330496 0.0912841
0.0637198 0.00027041015 -0.07269691 0.07406839 -0.026921377 -0.017911192 0.08256656 -0.05310152
0.13308968 0.051326204 -0.04469117 -0.08009425 -0.029799616 -0.04251403 0.08629672 0.086610325
-0.008345396 -0.024710765 0.04705887 -0.020034024 0.0014095951 -0.043381266 -0.002894044 -0.065327846
00000000: fab0 f8bc 7164 1a3d 3cde fcbb 35bb aabd
00000010: 4412 3d3d f6da b73c cc49 68bd e6ea 533d
00000020: b9fb 6fbd abaa d73b 7095 72bd 9a95 83bd
00000030: ca2f 223d a67a 753d 5eb4 afbd efc2 66bd
00000040: ca9a 50bd 3adc a9bd 1bf4 bab9 a362 733d
00000050: f9ef cf3c 2592 eebc 8b9f efbc 67f1 1c3c
00000060: c517 72bd 5190 abbd 6e46 cfbb b677 353b
00000070: 0733 81bd 0be6 36bd b02d 953d c2cb 813b
00000080: 7d3e babc 3372 16bd c5e8 423d 4e59 463b
00000090: 0b20 623d f9e0 05bd 476d 4ebd 4752 343d
000000a0: 3d51 c5bc f7ac 753d 8609 53bc 4bdc 423b
000000b0: a99d 6abd 529a aabd 58fc 78bd 0509 293d
000000c0: a5bf a3bd 90d2 f1bb b8d7 92bc 23d9 ca3b
000000d0: 4e56 c8bd 64eb 08bd bd40 9abc 35fa 983b
000000e0: 6263 02bd 3ad1 903d 7ce1 dbbc ec93 943d
000000f0: 2474 843d d5b2 3b3d 4a25 513d 6a87 883d
00000100: e836 a4bd 17a3 89bd 9b0c 663c d5df 03bd
00000110: 655c 3bbd 1eb7 80bd 6726 053d ce82 853d
00000120: 39e4 36bd 3290 f33c 71f1 b23c d7b4 18bc
00000130: c3de 5dbd 80f5 1f3d 828e 473d f2af 2ebd
00000140: 47b2 5f3d 8925 4e3d 7c5c 39bd c6c1 a9bd
00000150: f763 903c f0b8 233d 9db7 78bc 558d ae3d
00000160: 0f6b 13bc 32dd ecbb 7e1a 7b3d 1b33 8ebc
00000170: dd82 573d 6f0f 41ba 069c 893c 2869 a5bb
00000180: 0065 38bc 06cf b23c 7f69 7dbd a059 4ebd
00000190: e27f aa39 06c4 07bd 1c7e 45bd db10 86bd
000001a0: 65ff 0abd a0dd a93d 9717 6cbd 010e dc3c
000001b0: 43c2 973d fbec 693d a807 533c 7f74 83bc
000001c0: 28b0 7f3d 19bf 383c 68d0 b3bd b8e4 66bd
000001d0: fb87 debc 61f8 19bb 6f53 0dbd 8788 013c
000001e0: 13b5 c33c 7f26 8ebd d86f 52bd 4b5a 2b3d
000001f0: dc36 adbd 1ba5 1f3d ca3d 173c 97fa b5bd
00000200: d663 15bc 2722 923d de76 74bb 2e3c 223d
00000210: 5e9c 8abd 1463 663c fc32 9cbd 34d8 8a3d
00000220: ac6e 89bd 4607 c6bc 2b95 293d 2b56 793c
00000230: 44a4 9a3c 043c 113d e17e d3bb 128b 1c3d
00000240: 9af1 ad3d ff8f c63c 33b6 073c 0c5d e03c
00000250: e2df bf3c 67f4 303d 2a6c fbbb bd4d ea3b
00000260: c076 e2bb 0d11 70bd 1f7b 4539 20ef 72bd
00000270: 1885 963d 7023 473d a3a3 d53c 7f62 94bd
00000280: 40a3 313c cf1d a43d 729f ab3c 2ef2 c53d
00000290: 4c5d 9f3d 53b4 103d 71ff a23d 170a 6dba
000002a0: d4b5 f33d d02d b03c cc02 c73c 4073 fa3c
000002b0: 1eee 143b 5da4 b33d f795 aa3d fd55 89bc
000002c0: fe41 d8bc 113e 913d cf33 4a3d 1d17 f0bc
000002d0: cb23 9fbd c1a3 38bb 0531 2b3d fa93 243e
000002e0: 5556 013d 2f24 043d 1750 aa3d ee08 e43c
000002f0: b3f6 083d d4e4 febb da24 933d 6cf2 6b3d
00000300: be64 2cbc 68ed 173d bc9c 37bd 7f1d 94bd
00000310: af40 ac3d 7651 2d3d 9177 4b3d b5d4 4f3d
00000320: 003a b13d 54d1 b93c 2923 1d3d cf9a 2cbd
00000330: dd4d d1bd 3d5c 003d 6722 05bd 540e dd3b
00000340: 24b9 c6bb 78c9 1dbd 7d88 adbc 94cf c43d
00000350: b53e 0e3c c68a 0c3d 6c1e 753d 0450 023e
00000360: 186c 2b3d 308d 3b3d 61c8 42bc 83d5 df3c
00000370: 6acf 313d 0b60 7a3d 51a2 70bd 1e31 8fbd
00000380: 7a13 9fbd b7ca 843d 8b12 a63d d5f4 883d
00000390: e946 c03c 4c1d 2f3c a977 f8bc 29f3 ba3d
000003a0: 877f 823d d6c5 8d39 1ee2 94bd 2bb1 973d
000003b0: 388a dcbc 7eba 92bc a818 a93d fb80 59bd
000003c0: a948 083e 6d3b 523d 170e 37bd 7408 a4bd
000003d0: 531e f4bc 3123 2ebd 56bc b03d c160 b13d
000003e0: 21bb 08bc 3b6e cabc cdc0 403d 651e a4bc
000003f0: 2ac2 b83a 8eb0 31bd 00aa 3dbb 9bca 85bd

net.6.bias f4 [64]
-0.019342864 0.2932159 0.32345808 -0.0050924732 0.04550388 0.17017044 0.1498476 0.26731947
0.035281945 0.23107459 0.012881455 0.011997081 -0.023008093 -0.08095442 0.030469017 -0.0034815073
0.3421658 0.15551195 0.21530724 0.22123693 0.22503424 0.22105433 0.16222961 -0.029367538
0.026983822 0.2002686 0.21972284 -0.00042862148 0.17587905 0.34776774 -0.0052240235 0.06504353
0.21623558 0.011290434 -0.067936376 0.25029543 0.22869149 0.2613822 0.2602227 0.19070332
0.33761135 0.28156748 0.045551047 -0.01169033 -0.00416816 0.31110126 0.3458415 -0.112591624
0.1812804 0.16588756 0.23573391 0.4138079 0.2413645 -0.09913629 -0.066370346 0.1391239
0.4474924 0.1315417 -0.048878524 0.29299727 0.002918232 0.18737608 0.100561224 0.040411465
00000000: ed74 9ebc 6520 963e 4c9c a53e c3de a6bb
00000010: 4762 3a3d 2941 2e3e a671 193e 19de 883e
00000020: cd83 103d d19e 6c3e bd0c 533c 688f 443c
00000030: 787b bcbc 6ecb a5bd 299a f93c 002a 64bb
00000040: 5b30 af3e 863e 1f3e 8079 5c3e ef8b 623e
00000050: 606f 663e 115c 623e 851f 263e 3194 f0bc
00000060: 2d0d dd3c 3613 4d3e 06ff 603e 9ab8 e0b9
00000070: a319 343e 9d0e b23e 492e abbb 8b35 853d
00000080: dc6c 5d3e 83fb 383c 3a22 8bbd b926 803e
00000090: 1a2e 6a3e e3d3 853e e93b 853e bb47 433e
000000a0: 65db ac3e 9d29 903e bc93 3a3d cc88 3fbc
000000b0: 0f95 88bb aa48 9f3e 2312 b13e 7096 e6bd
000000c0: 92a1 393e 6ede 293e 3b64 713e a1de d33e
000000d0: 4128 773e f807 cbbd 2ded 87bd 7f76 0e3e
000000e0: b91d e53e deb2 063e d934 48bd bd03 963e
000000f0: cf3f 3f3b 84df 3f3e 0bf3 cd3d 7e86 253d

net.8.weight f4 [32, 64]
0.018980004 0.033026192 0.048881814 -0.032228373 -0.0061909575 0.13002133 0.1074545 0.09009218
0.04512394 0.047432117 -0.09404612 -0.06336537 0.049849533 0.055341136 0.03588254 -0.050106894
0.12326625 0.13222276 0.06146453 0.06705991 0.14266443 0.036990557 -0.033315472 -0.09394487
-0.047867496 0.024204036 0.096030906 -0.051585503 0.06265789 0.15186976 0.009390114 -0.07901319
-0.0041489224 -0.09784703 -0.022182932 0.14283313 0.027451344 0.062734015 0.0163314 -0.012825148
0.039731093 0.14598446 -0.0695417 0.03723274 -0.06724529 0.036068 0.035875943 0.017028179
0.13648835 0.02805945 -0.012369091 0.17601731 0.11517752 0.044297915 -0.053420387 0.1745833
-0.006753442 0.07420298 -0.009332445 0.025937803 0.098103605 -0.0005344175 0.14286114 -0.0009995835
0.10292145 -0.0077046896 0.1368309 -0.016576733 -0.004595222 -0.09639558 0.033453796 0.09193811
-0.06397176 0.12595786 0.08746793 0.12198469 0.10167509 -0.082414426 -0.051752526 -0.0052676448
0.12386048 0.009834113 0.032535855 -0.08733468 0.021575928 0.10245011 -0.050885513 -0.036415473
0.049299434 0.0074466374 0.10596836 0.062392056 0.045435663 0.108914666 -0.09466681 0.04821536
0.0336009 0.05986421 0.10655862 -0.06637813 0.14428338 -0.08184999 -0.00038719882 0.04361517
0.12796882 -0.021049 -0.04031144 0.016463522 -0.089525945 0.10856557 -0.022998901 -0.09554265
-0.009682406 0.1326753 0.05458833 0.27910352 -0.049406268 0.101786405 0.111188665 -0.040105052
-0.050483227 0.14104998 -0.09955188 0.03316577 0.106361024 0.1447739 0.17524372 0.009341521
-0.022887085 -0.07692716 -0.1021281 0.028224938 0.0770377 -0.07511205 0.10722622 0.018657776
0.018968977 -0.05284669 0.05632083 -0.013301879 -0.07795741 -0.05230416 -0.10260088 -0.11501653
-0.04557166 0.119083636 -0.0046702507 0.03877185 0.0835067 -0.06256518 -0.09714487 -0.09509475
-0.11981158 -0.0105719855 0.04279391 -0.051927578 0.040976483 -0.07487749 -0.09309316 0.09892491
0.021056682 0.07845807 -0.05391269 0.035798673 -0.116947144 -0.12072283 -0.0423826 0.09347351
0.007911506 -0.114381544 -0.066603646 0.098743044 0.08543715 -0.085489474 -0.083502114 0.009211398
-0.07204897 -0.002263362 -0.043090712 0.038410887 0.025996303 0.09141864 0.0034950317 -0.0969244
-0.12400282 -0.10221365 -0.07379071 0.052384883 0.04699137 0.045417976 0.074481316 -0.07113005
-0.020566506 0.05054229 0.038634956 0.083936065 -0.11385273 0.11161865 0.013074237 -0.10087223
-0.0641469 0.057889137 0.024390275 -0.022182437 0.090416156 0.115595475 0.097619735 -0.03140638
-0.114705615 -0.02803451 0.035016052 0.0025939276 -0.058799792 0.047975957 -0.100345954 0.04165106
0.049094435 -0.004642728 0.03604607 -0.07279603 -0.082053766 -0.06411428 -0.015727142 -0.012308226
-0.066946685 0.03515623 0.018306317 0.060472384 -0.07625995 -0.110433735 0.08899464 -0.021023389
0.09385629 0.008215135 0.106867194 0.11459808 0.03912816 -0.05740234 -0.12682016 -0.05343613
-0.0017487088 -0.054959603 -0.112035796 0.09992439 -0.094242595 -0.0467184 -0.005116375 -0.047871172
-0.1021511 -0.11556457 0.085232355 0.030470362 -0.118263714 -0.0708375 -0.013031909 -0.07485819
00000000: f47b 9b3c 7946 073d 4c38 483d e601 04bd
00000010: 84dd cabb 5024 053e 1b11 dc3d 4082 b83d
00000020: e1d3 383d 2e48 423d 419b c0bd b4c5 81bd
00000030: 062f 4c3d 63ad 623d 92f9 123d e33c 4dbd
00000040: 0473 fc3d 6765 073e 3bc2 7b3d b556 893d
00000050: a016 123e 6983 173d ce75 08bd 2b66 c0bd
00000060: b510 44bd 8b47 c63c daab c43d 524b 53bd
00000070: c852 803d bf83 1b3e fed8 193c abd1 a1bd
00000080: aff3 87bb 0664 c8bd fbb8 b5bc d942 123e
00000090: a4e1 e03c b17a 803d 6ec9 853c 9220 52bc
000000a0: 12bd 223d f37c 153e e16b 8ebd 5c81 183d
000000b0: e6b7 89bd 0abc 133d a7f2 123d ae7e 8b3c
000000c0: 9ac3 0b3e efdc e53c baa7 4abc e23d 343e
000000d0: 31e2 eb3d bb71 353d 56cf 5abd f7c5 323e
000000e0: fa4b ddbb bbf7 973d 1de7 18bc 847b d43c
000000f0: 8bea c83d 2718 0cba 314a 123e 7504 83ba
00000100: 7bc8 d23d 9f77 fcbb 661d 0c3e eecb 87bc
00000110: 8493 96bb 0c6b c5bd d906 093d 0c4a bc3d
00000120: a003 83bd 19fb 003e 6322 b33d 1cd3 f93d
00000130: 083b d03d e5c8 a8bd 75fa 53bd 359c acbb
00000140: 90aa fd3d 421f 213c 5144 053d 86dc b2bd
00000150: 00c0 b03c 5dd1 d13d 546d 50bd 6428 15bd
00000160: 34ee 493d ec02 f43b f105 d93d d08e 7f3d
00000170: bf1a 3a3d a70e df3d ace0 c1bd 787d 453d
00000180: 19a1 093d 2d34 753d 683b da3d 42f1 87bd
00000190: 06bf 133e f8a0 a7bd f200 cbb9 d2a5 323d
000001a0: 420a 033e f46e acbc 9c1d 25bd 82de 863c
000001b0: 6159 b7bd a057 de3d 3168 bcbc ddab c3bd
000001c0: f4a2 1ebc 09dc 073e 0398 5f3d a8e6 8e3e
000001d0: 3a5e 4abd 6475 d03d e2b6 e33d 3245 24bd
000001e0: 80c7 4ebd 686f 103e dbe1 cbbd d5d8 073d
000001f0: cfd3 d93d 9c3f 143e 1773 333e 2e0d 193c
00000200: b27d bbbc fd8b 9dbd 8a28 d1bd fc37 e73c
00000210: f1c5 9d3d 59d4 99bd 6c99 db3d 31d8 983c
00000220: d464 9b3c c575 58bd acb0 663d 20f0 59bc
00000230: 22a8 9fbd e33c 56bd 6920 d2bd c98d ebbd
00000240: 59a9 3abd 1fe2 f33d e708 99bb 3bcf 1e3d
00000250: 9005 ab3d 2c22 80bd e4f3 c6bd 09c1 c2bd
00000260: c65f f5bd 1f36 2dbc ab48 2f3d 03b2 54bd
00000270: f5d6 273d 5f59 99bd a0a7 bebd 2599 ca3d
00000280: 107f ac3c a0ae a03d 8ed3 5cbd a1a1 123d
00000290: fc81 efbd 883d f7bd 6199 2dbd 0a6f bf3d
000002a0: 439f 013c df40 eabd 7e67 88bd cb39 ca3d
000002b0: acf9 ae3d 1b15 afbd 2803 abbd 67eb 163c
000002c0: 698e 93bd ea54 14bb e37f 30bd bc54 1d3d
000002d0: 33f6 d43c b239 bb3d e70c 653b 4d80 c6bd
000002e0: 31f5 fdbd 6455 d1bd 951f 97bd 8891 563d
000002f0: 067a 403d 3308 3a3d a989 983d a2ac 91bd
00000300: 177b a8bc 6f05 4f3d b03f 1e3d ace6 ab3d
00000310: 9f2b e9bd 5298 e43d 5335 563c 1a96 cebd
00000320: 735f 83bd 291d 6d3d 1dce c73c f1b7 b5bc
00000330: 1b2c b93d 52bd ec3d dbec c73d faa3 00bd
00000340: c7ea eabd a1a8 e5bc fe6c 0f3d e2fe 293b
00000350: 0dd8 70bd 7082 443d 2e82 cdbd 4d9a 2a3d
00000360: 3f17 493d 0622 98bb 0ba5 133d 1616 95bd
00000370: ce0b a8bd 594e 83bd 35d6 80bc 71a8 49bc
00000380: 581b 89bd fbff 0f3d 21f7 953c e4b1 773d
00000390: 2d2e 9cbd 152b e2bd d242 b63d 3e39 acbc
000003a0: ba37 c03d c698 063c 30dd da3d 66b2 ea3d
000003b0: d944 203d b71e 6bbd 25dd 01be d8df 5abd
000003c0: ee34 e5ba 521d 61bd 0673 e5bd 29a5 cc3d
000003d0: 4302 c1bd cb5b 3fbd 44a7 a7bb 9014 44bd
000003e0: 9934 d1bd 1ead ecbd 4d8e ae3d fb9c f93c
000003f0: 3f34 f2bd 4013 91bd ca83 55bc 404f 99bd

net.8.bias f4 [32]
0.18890919 0.1167486 -0.011216181 -0.07566271 0.06514946 0.21440957 0.19566493 0.009879994
0.24220978 -0.08172877 -0.12374285 0.20814852 -0.14417033 -0.013643336 -0.088326186 0.115525976
-0.03204255 0.05348904 0.0058017117 0.16752045 -0.049280565 -0.07288334 0.21739213 -0.02218787
-0.024260389 0.0039258506 0.05142333 0.1735285 0.26109925 0.24978378 -0.030713506 -0.10423664
00000000: 6971 413e e419 ef3d 13c4 37bc 0df5 9abd
00000010: 156d 853d 2f8e 5b3e 635c 483e b3df 213c
00000020: d705 783e 6a61 a7bd e46c fdbd e324 553e
00000030: 63a1 13be 4c88 5fbc 5ce4 b4bd e298 ec3d
00000040: 0d3f 03bd 5317 5b3d 491c be3b 7b8a 2b3e
00000050: 6bda 49bd dc43 95bd 0b9c 5e3e 56c3 b5bc
00000060: b9bd c6bc 6ca4 803b 45a1 523d 75b1 313e
00000070: cdae 853e 52c7 7f3e e49a fbbc 057a d5bd

net.10.weight f4 [1, 32]
0.18114774 0.099900305 -0.16180977 -0.038783535 0.1651562 0.121105686 0.15830453 -0.07424543
0.080020726 -0.08704466 -0.048971932 0.12166739 -0.021958968 -0.15420991 -0.131687 0.045899805
-0.062326882 0.09833515 -0.0608376 0.06323853 -0.103123054 -0.04040855 0.066034876 -0.07850151
-0.07691655 -0.013085627 0.08098087 0.17116106 0.08365862 0.09127663 -0.061839797 -0.13688491
00000000: cb7e 393e 8898 cc3d 76b1 25be 7cdb 1ebd
00000010: b51e 293e 4206 f83d 951a 223e fd0d 98bd
00000020: e8e1 a33d 7844 b2bd cb96 48bd c12c f93d
00000030: 4be3 b3bc 34e9 1dbe f5d8 06be 6f01 3c3d
00000040: 794a 7fbd f063 c93d d930 79bd 3483 813d
00000050: 2e32 d3bd 7083 25bd 4b3d 873d 66c5 a0bd
00000060: 6d86 9dbd 1965 56bc 4cd9 a53d d844 2f3e
00000070: 3655 ab3d 3eef ba3d ba4b 7dbd 8f2b 0cbe
